Deep learning network/saved_model/mnist_model.pth (torch, 440581 bytes, 6 tensors)

fc1.weight f4 [128, 784]
0.016261764 0.075002655 0.060851507 0.0059128636 0.0633952 0.05124924 0.022065395 0.049676728
0.07128413 0.07247116 0.0063825115 0.008962113 0.04053314 0.06339714 0.03494293 0.06133624
0.059088975 0.0069089625 0.03979753 0.008825894 0.009181481 0.025519969 0.024725722 0.021326246
0.059810594 0.066047914 0.007640154 0.033572845 0.05411007 0.031222453 0.005657823 0.030655196
0.066762224 0.05141797 0.03219934 0.019894486 0.03231593 0.0355314 0.058187876 0.023444036
0.015686993 0.055450108 0.068595596 0.03559673 0.037800718 0.023974093 0.02468486 0.06821259
0.064521305 0.046509393 0.06805161 0.04250597 0.008274721 0.06703459 0.06157525 0.053131722
0.05164884 0.070564225 0.073536724 0.06297037 0.03384368 0.027503738 0.03609585 0.007538871
0.07116732 0.017020576 0.03225399 0.051779356 0.040365234 0.06867496 -9.894307e-05 0.0547939
0.021199206 0.07112544 0.06383732 0.056918323 0.054367494 0.035366263 0.060655512 0.030132039
0.028954377 0.047686316 0.07099845 0.0058493325 0.07010325 0.061494865 0.009305473 0.049461238
0.024865044 0.074391715 0.058022562 0.05594306 0.03430484 0.06634865 0.057460953 0.047781784
0.04184062 0.021540795 0.06005413 0.050386198 0.018230285 0.040911857 0.0053408113 -0.0070413714
0.041575957 -0.004783793 0.033030607 0.05006416 0.04003203 0.014143333 0.008551445 0.011226315
0.026567688 0.04925801 0.055165317 0.07228655 0.06575384 0.040053636 0.014611341 0.07212828
0.0716311 0.041686762 0.072078876 0.016473476 0.06115906 0.03210184 0.018792385 0.039431777
0.008804362 0.022486787 -0.016832745 -0.018330092 0.066380456 0.038732603 0.051423162 0.02486735
0.058666453 0.021353165 0.04741987 0.07094516 0.016726462 0.069527864 0.06846394 0.06363437
0.007507124 0.015263268 0.01457236 0.027258951 0.022679962 0.047695484 0.07206019 0.02472509
0.05938618 0.0041322834 0.021703009 0.010332108 -0.03494488 -0.038549904 -0.016284348 0.044998962
0.011614271 0.033397194 0.048948906 0.067136 0.0060927 0.051886603 0.048087284 0.030732462
0.052258298 0.057815507 0.036290914 0.04914238 0.071846865 0.06951608 0.04735421 0.036942642
0.03066192 0.06237636 0.06700869 0.10334164 0.076879345 0.06724776 0.012365448 -0.049445264
-0.08668963 -0.057688177 -0.030514913 -0.037871543 0.02331512 0.048973337 0.04150905 0.020756204
0.038360015 0.060182013 0.03882107 0.012525335 0.06885568 0.06222143 0.013382446 0.007744709
0.04958608 0.044206433 0.032110643 0.059290543 0.013678433 0.038427792 0.0685358 0.019246008
0.08384747 0.060847223 -0.02643885 0.016695933 0.0041276887 -0.027396364 -0.09210814 -0.07178027
-0.0035642355 0.038186334 0.0024251887 0.017892003 0.068797775 0.06943606 0.05918946 0.051816177
0.066285 0.036208685 0.06262816 0.07157279 0.0114311585 0.010479213 0.016451217 0.035720594
0.060413994 0.05057991 0.036988355 0.027837805 0.07702606 0.031002238 -0.018323207 -0.013191428
-0.049848042 -0.020021012 -0.12682492 -0.0023958122 -0.046673037 0.012105752 0.01740772 0.03883483
0.021844365 0.050208308 0.061593045 0.013340563 0.023070956 0.026708057 0.055011947 0.0066819796
00000000: 6437 853c fe9a 993d 6e3f 793d b2c0 c13b
00000010: 58d5 813d b9ea 513d 7dc2 b43c d379 4b3d
00000020: 6afd 913d c26b 943d 6324 d13b d4d5 123c
00000030: 1406 263d 5cd6 813d 5120 0f3d b63b 7b3d
00000040: 4807 723d 9464 e23b bc02 233d 7c9a 103c
00000050: ec6d 163c 410f d13c 998d ca3c 61b4 ae3c
00000060: f4fb 743d 2144 873d 425a fa3b ae83 093d
00000070: 85a2 5d3d 3bc6 ff3c 4265 b93b 9b20 fb3c
00000080: a2ba 883d a69b 523d 75e3 033d c3f9 a23c
00000090: b55d 043d 6089 113d 6956 6e3d b50d c03c
000000a0: 0282 803c a71f 633d d97b 8c3d e0cd 113d
000000b0: edd4 1a3d 5165 c43c e737 ca3c 0bb3 8b3d
000000c0: bf23 843d a280 3e3d a45e 8b3d bd1a 2e3d
000000d0: b292 073c 6e49 893d 5436 7c3d a6a0 593d
000000e0: bc8d 533d fa83 903d 6c9a 963d 9cf6 803d
000000f0: ac9f 0a3d 854f e13c 3ed9 133d a208 f73b
00000100: 2cc0 913d bc6e 8b3c c31c 043d 9716 543d
00000110: 0456 253d 75a5 8c3d a87f cfb8 926f 603d
00000120: f5a9 ad3c 37aa 913d 24bd 823d 3023 693d
00000130: 73b0 5e3d 37dc 103d ea71 783d 77d7 f63c
00000140: bb31 ed3c ba52 433d a367 913d c2ab bf3b
00000150: 4b92 8f3d 0ae2 7b3d fc75 183c de97 4a3d
00000160: c7b1 cb3c af5a 983d 11a9 6d3d 8d24 653d
00000170: 3b83 0c3d cde1 873d 2d5c 6b3d d5b6 433d
00000180: 1261 2b3d 5276 b03c 52fb 753d c261 4e3d
00000190: ae57 953c 3193 273d f901 af3b 4ebb e6bb
000001a0: 8d4b 2a3d 5dc1 9cbb 1a4b 073d 1410 4d3d
000001b0: a0f8 233d 70b9 673c 5c1b 0c3c 94ee 373c
000001c0: 7ba4 d93c c4c2 493d 07f5 613d f90a 943d
000001d0: f3a9 863d 480f 243d 6864 6f3c feb7 933d
000001e0: 53b3 923d bdbf 2a3d 179e 933d 62f3 863c
000001f0: ec81 7a3d 387d 033d 7df2 993c 3783 213d
00000200: 2c40 103c 3636 b83c d3e4 89bc fd28 96bc
00000210: 7af2 873d 14a6 1e3d 18a1 523d 9db6 cb3c
00000220: 3c4c 703d d5ec ae3c 563b 423d b24b 913d
00000230: ef05 893c a064 8e3d d236 8c3d bd52 823d
00000240: 52fe f53b c912 7a3c e8c0 6e3c 2a4e df3c
00000250: 54cb b93c 575c 433d 4b94 933d 468c ca3c
00000260: ec3e 733d 1b68 873b 82ca b13c 0048 293c
00000270: 5d22 0fbd 81e6 1dbd c166 85bc d550 383d
00000280: c949 3e3c 7fcb 083d a67e 483d 997e 893d
00000290: 46a5 c73b 0c87 543d 2cf7 443d a5c2 fb3c
000002a0: cc0c 563d f4cf 6c3d c8a5 143d 8549 493d
000002b0: 7324 933d 725e 8e3d 7df6 413d 2b51 173d
000002c0: b52e fb3c 5b7e 7f3d da3b 893d c8a4 d33d
000002d0: eb72 9d3d 32b9 893d 7398 4a3c 1e87 4abd
000002e0: 558a b1bd 704a 6cbd 69fa f9bc 311f 1bbd
000002f0: 5aff be3c 4498 483d 6505 2a3d ea08 aa3c
00000300: 641f 1d3d 6a81 763d d802 1f3d 1037 4d3c
00000310: 3504 8d3d e6db 7e3d 0c42 5b3c 54c7 fd3b
00000320: c61a 4b3d ce11 353d 7386 033d a4da 723d
00000330: 821b 603c 7666 1d3d 7f5c 8c3d cea9 9d3c
00000340: 39b8 ab3d f03a 793d 4a96 d8bc e9c5 883c
00000350: 9041 873b 576e e0bc 31a3 bcbd 8901 93bd
00000360: f395 69bb 4669 1c3d eaef 1e3b 4092 923c
00000370: d9e5 8c3d 7e34 8e3d a670 723d 333d 543d
00000380: 6ec0 873d 8f4f 143d 3143 803d c194 923d
00000390: c149 3b3c 01b1 2b3c b4c4 863c c24f 123d
000003a0: aa74 773d e12c 4f3d 1a81 173d 1c0c e43c
000003b0: d7bf 9d3d 68f8 fd3c 8d1a 96bc dc20 58bc
000003c0: 762d 4cbd 1b03 a4bc 64de 01be 0f03 1dbb
000003d0: 3a2c 3fbd 3457 463c a39a 8e3c 4511 1f3d
000003e0: f4f2 b23c 3aa7 4d3d fd48 7c3d 6092 5a3c
000003f0: 4dff bc3c dbca da3c 3554 613d 82f4 da3b

fc1.bias f4 [128]
-0.06911397 -0.09239296 -0.06445963 -0.32688877 0.003033446 -0.026434103 -0.3765359 -0.03902987
-0.025788346 -0.08532642 -0.0039053145 -0.044430144 -0.0661133 -0.31214094 -0.2393488 0.008031531
-0.029154869 -0.07606919 -0.050276045 -0.085204415 -0.037891183 -0.015829856 -0.50961506 -0.30498067
-0.023696521 -0.07151844 -0.065312535 -0.052596193 -0.03409443 -0.05162321 -0.07445268 -0.07172701
-0.003252708 -0.34024176 -0.04587958 -0.06048177 -0.058786083 -0.03283722 -0.09176007 -0.07503156
-0.03623437 -0.05994974 -0.0853828 -0.031315718 -0.12777454 -0.29246834 -0.07912414 -0.10433165
-0.06990691 -0.07942546 -0.044464312 -0.04520914 -0.054842014 -0.021011576 -0.025809644 -0.066664696
-0.08412663 -0.018772919 -0.05235469 -0.037705474 -0.03414846 -0.08612104 -0.095703155 -0.048788846
-0.06761993 -0.032068808 -0.06505974 -0.09277865 -0.052481603 -0.38500547 -0.049708422 -0.043444403
-0.10966733 -0.039571762 -0.02168281 -0.050989024 -0.09188589 -0.15719791 -0.094510175 -0.03403332
-0.06546131 -0.08387582 -0.038470875 -0.05412735 -0.05969823 -0.017488299 -0.027031766 -0.034031697
-0.06907853 -0.016178895 -0.082089156 -0.31634063 -0.04583117 -0.06783634 -0.04576165 -0.02214179
-0.043723874 -0.07689963 -0.06923562 -0.09249345 0.006200552 -0.0606441 -0.023985222 -0.0057404423
-0.028043833 -0.01616542 -0.22550234 -0.052726828 -0.066117145 -0.064082384 -0.054189224 -0.051195618
-0.033957984 -0.0139477365 -0.047168784 -0.01892917 -0.09537791 -0.40456408 -0.15818329 -0.028610067
-0.04409948 -0.08059485 -0.0670291 -0.08997145 -0.084887564 -0.043317437 -0.029992132 -0.06600489
00000000: a08b 8dbd 8538 bdbd 6903 84bd f75d a7be
00000010: c7cc 463b 558c d8bc 50c9 c0be c9dd 1fbd
00000020: 1542 d3bc 9ebf aebd 4ef0 7fbb 62fc 35bd
00000030: 6966 87bd f0d0 9fbe da17 75be af96 033c
00000040: 31d6 eebc 2aca 9bbd 41ee 4dbd a77f aebd
00000050: c933 1bbd 9dad 81bc 2276 02bf 6d26 9cbe
00000060: 351f c2bc 4378 92bd 94c2 85bd 1b6f 57bd
00000070: 9aa6 0bbd dc72 53bd a67a 98bd 9ce5 92bd
00000080: 622b 55bb 2b34 aebe 3aec 3bbd bcbb 77bd
00000090: adc9 70bd 5280 06bd b4ec bbbd 26aa 99bd
000000a0: 7e6a 14bd dc8d 75bd 2ddd aebd e944 00bd
000000b0: 54d7 02be 69be 95be d60b a2bd d5ab d5bd
000000c0: 5b2b 8fbd d1a9 a2bd 3620 36bd 382d 39bd
000000d0: 05a2 60bd 7820 acbc bf6e d3bc 8087 88bd
000000e0: 954a acbd aac9 99bc df71 56bd 0e71 1abd
000000f0: 41df 0bbd 3a60 b0bd 0400 c4bd d0d6 47bd
00000100: 517c 8abd 955a 03bd 0a3e 85bd bc02 bebd
00000110: f3f6 56bd 701f c5be 0f9b 4bbd c2f2 31bd
00000120: 4499 e0bd 0016 22bd 26a0 b1bc ded9 50bd
00000130: ab2e bcbd 7df8 20be 8d8e c1bd 8666 0bbd
00000140: 9410 86bd 16c7 abbd a393 1dbd a4b4 5dbd
00000150: 2286 74bd 9f43 8fbc b971 ddbc d264 0bbd
00000160: 0b79 8dbd 9a89 84bc 5c1e a8bd 66f7 a1be
00000170: 77b9 3bbd c7ed 8abd 9170 3bbd b362 b5bc
00000180: ce17 33bd 8e7d 9dbd 68cb 8dbd 356d bdbd
00000190: 002e cb3b f365 78bd a87c c4bc 521a bcbb
000001a0: 2ebc e5bc 586d 84bc 16ea 66be 16f8 57bd
000001b0: 6d68 87bd a03d 83bd 85f5 5dbd 7fb2 51bd
000001c0: 8717 0bbd 0c85 64bc 0e34 41bd 5911 9bbc
000001d0: 7e55 c3bd 0623 cfbe cdfa 21be a95f eabc
000001e0: a8a1 34bd ea0e a5bd 8e46 89bd f442 b8bd
000001f0: 88d9 adbd a06d 31bd 0fb2 f5bc 922d 87bd

fc2.weight f4 [64, 128]
0.07441432 -0.060844086 0.01735079 -0.32882717 -0.07455062 -0.0618655 -0.16560486 0.086205885
0.14593947 0.013205872 0.02771046 -0.06449004 -0.01047295 0.17331891 -0.9144185 -0.36030886
0.05336366 -0.1179199 -0.10263423 -0.011495903 -0.017367633 -0.1531788 0.039416686 0.10572146
-0.026012033 0.027759273 0.05957095 -0.14509831 -0.13736875 -0.016695833 0.009046844 0.03950302
-0.092146896 -0.79788834 -0.02184701 -0.1483212 -0.12785923 -0.116688855 -0.0013572092 -0.013229016
0.14617126 -0.120801 -0.059030574 -0.02159766 -0.12893906 -0.18137193 0.029421749 -0.54406554
-0.06393283 -0.099472955 -0.013542718 0.012916697 -0.118781656 -0.06790155 0.016993487 -0.060496457
-0.09837691 0.023451857 -0.07418753 0.023842327 -0.13508062 -0.070718594 0.12713008 0.013460341
0.03708039 -0.09524135 -0.078700595 0.016166952 -0.039824862 -0.08602407 -0.0074844062 -0.02430998
-0.22778068 -0.0073229596 0.022404874 0.042770345 -0.09048365 0.045971554 0.015288813 -0.13900839
-0.07104594 0.0566509 -0.024774225 0.12042771 0.11883914 -0.070328735 0.00018972938 0.070124246
-0.10292408 -0.112892106 0.0061142556 -0.4076574 0.018660108 0.07036954 -0.04552974 -0.05131394
0.056370802 0.012427786 0.00376153 0.024159543 0.07973441 -0.023362 -0.03282232 0.06218795
-0.11745578 0.13560848 -0.7305348 -0.06184044 -0.03929656 0.019116618 0.098333046 -0.0024948367
-0.11724397 -0.02016166 -0.012258075 -0.057655755 -0.07829722 0.12378064 -0.13489145 0.11424069
0.010493034 -0.085758895 0.111735314 -0.02612252 0.00020022389 -0.09778626 0.0036799884 -0.0417016
0.013100816 -0.055220146 0.13062395 -0.073607124 -0.04120192 0.017632743 -0.054524556 -0.039770354
0.00446556 0.034947306 -0.06540267 0.03247418 0.030240279 -0.13138181 -0.1275202 -0.11354666
-0.053956617 -0.043460425 -0.032325465 -0.002302073 0.048020776 -0.1299152 -0.1630262 -0.0732385
-0.02216935 -0.023666106 -0.10924498 0.020730846 -0.12786359 0.022782693 0.1270029 0.049572367
0.017240118 -0.09331063 0.11082174 0.006671294 -0.12653318 0.07388582 0.061717667 0.03781242
-0.0037104315 0.070037514 0.063287444 0.009513041 -0.013879684 -0.01968245 0.12929866 -0.06789579
0.04747427 0.05106809 -0.025084304 0.030140646 0.119200125 -0.04675448 0.10440238 -0.037158936
0.0760261 0.036210492 0.10770215 -0.0228713 0.03475512 0.019827932 0.039415188 0.0075226906
-0.111236215 0.048980888 0.027580567 0.028141638 -0.04565849 -0.04913554 0.02664525 -0.0027567497
-0.020742897 0.12907366 0.0310921 -0.035581574 -0.057535645 -0.04208587 0.074535966 0.13722682
0.038624592 0.010457541 -0.104410514 -0.01981031 0.06693562 -0.13939601 0.053752266 -0.10648987
0.0852554 -0.06731797 -0.056429584 -0.049806032 0.13449182 0.08427715 -0.13276498 -0.087064914
-0.050267093 -0.010295994 -0.061588503 0.13462125 0.0050495714 0.026727535 -0.06446825 -0.061225545
-0.08507525 -0.07905778 -0.0214133 -0.01776168 0.07128859 -0.06762707 0.011197173 -0.053568907
-0.011158118 -0.1240271 0.021408074 -0.06826067 0.09961817 -0.07185873 -0.04839422 0.07950997
-0.021738809 -0.014129244 -0.023983361 0.037875835 0.13425225 0.023254992 0.03109167 -0.005992956
00000000: 8966 983d a637 79bd 3e23 8e3c 095c a8be
00000010: ffad 98bd ae66 7dbd 5294 29be b68c b03d
00000020: 2871 153e 715d 583c 0c01 e33c 5b13 84bd
00000030: bc96 2bbc 837a 313e 5517 6abf 677a b8be
00000040: da93 5a3d fd7f f1bd e531 d2bd 5059 3cbc
00000050: 9146 8ebc e7da 1cbe 6473 213d 7e84 d83d
00000060: 3017 d5bc 6a67 e33c ab00 743d a794 14be
00000070: 65aa 0cbe b3c5 88bc 3739 143c ebcd 213d
00000080: 83b7 bcbd 6942 4cbf 80f8 b2bc 83e1 17be
00000090: 88ed 02be 91fa eebd 62e4 b1ba 84be 58bc
000000a0: ebad 153e 8466 f7bd 0bca 71bd 93ed b0bc
000000b0: 9a08 04be 90b9 39be e105 f13c e147 0bbf
000000c0: 37ef 82bd 7ab8 cbbd 47e2 5dbc 8ea0 533c
000000d0: cc43 f3bd f80f 8bbd ed35 8b3c 22cb 77bd
000000e0: d579 c9bd 1c1e c03c a2ef 97bd fc50 c33c
000000f0: 9352 0abe e9d4 90bd 632e 023e c388 5c3c
00000100: 9be1 173d e60d c3bd c72d a1bd 8e70 843c
00000110: 651f 23bd 632d b0bd c03f f5bb b925 c7bc
00000120: 573f 69be 70f5 efbb 6d8a b73c f52f 2f3d
00000130: 7e4f b9bd ab4c 3c3d ee7d 7a3c 3758 0ebe
00000140: 8980 91bd c60a 683d 51f3 cabc cea2 f63d
00000150: ef61 f33d 8308 90bd 18f2 4639 4d9d 8f3d
00000160: dcc9 d2bd fa33 e7bd 185a c83b 79b8 d0be
00000170: 15dd 983c e81d 903d 657d 3abd 912e 52bd
00000180: 12e5 663d ea9d 4b3c 0084 763b 3cea c53c
00000190: cb4b a33d aa61 bfbc b270 06bd cbb8 7e3d
000001a0: a88c f0bd f3dc 0a3e 5404 3bbf 674c 7dbd
000001b0: 6ef5 20bd 749a 9c3c d662 c93d 6a80 23bb
000001c0: 9b1d f0bd 112a a5bc 18d6 48bc 7128 6cbd
000001d0: 4b5a a0bd b480 fd3d fc20 0abe 06f7 e93d
000001e0: f9ea 2b3c 5ca2 afbd 7cd5 e43d e5fe d5bc
000001f0: 31f3 5139 2a44 c8bd f62b 713b 4ccf 2abd
00000200: cea4 563c 852e 62bd 49c2 053e 55bf 96bd
00000210: 58c3 28bd 8b72 903c 2455 5fbd 3de6 22bd
00000220: d553 923b e824 0f3d d6f1 85bd a503 053d
00000230: 76ba f73c f488 06be a894 02be 278b e8bd
00000240: 9d01 5dbd 8f03 32bd b567 04bd 60de 16bb
00000250: 6fb1 443d 7d08 05be 57f0 26be 11fe 95bd
00000260: 7f9c b5bc 6cdf c1bc d5bb dfbd bcd3 a93c
00000270: acee 02be c5a2 ba3c 0c0d 023e 650c 4b3d
00000280: 263b 8d3c a519 bfbd 82f6 e23d df9a da3b
00000290: ea91 01be 7351 973d aacb 7c3d 32e1 1a3d
000002a0: b62a 73bb d46f 8f3d d99c 813d 96dc 1b3c
000002b0: 9d67 63bc 173d a1bc de66 043e f30c 8bbd
000002c0: 6174 423d c62c 513d 997d cdbc 84e9 f63c
000002d0: 321f f43d a081 3fbd ead0 d53d f833 18bd
000002e0: 92b3 9b3d 7451 143d f292 dc3d 985c bbbc
000002f0: 625b 0e3d 306e a23c d271 213d e780 f63b
00000300: d0cf e3bd 2fa0 483d a4f0 e13c 4b89 e63c
00000310: 6604 3bbd 5942 49bd 2447 da3c 96aa 34bb
00000320: 02ed a9bc e32b 043e dcb4 fe3c fcbd 11bd
00000330: 7faa 6bbd 3c62 2cbd 50a6 983d 3085 0c3e
00000340: d234 1e3d 1b56 2b3c 2ed5 d5bd 3b49 a2bc
00000350: 8b15 893d d4bd 0ebe 562b 5c3d 5c17 dabd
00000360: 629a ae3d 01de 89bd b522 67bd 6901 4cbd
00000370: 39b8 093e 8099 ac3d 8bf3 07be 174f b2bd
00000380: dee4 4dbd 87b0 28bc 3a44 7cbd 27da 093e
00000390: e076 a53b b4f3 da3c ee07 84bd a3c7 7abd
000003a0: ef3b aebd 0ce9 a1bd f26a afbc f180 91bc
000003b0: c1ff 913d 1080 8abd 5974 373c 126b 5bbd
000003c0: 8ad0 36bc ec01 febd fc5f af3c 40cc 8bbd
000003d0: 9c04 cc3d ab2a 93bd 0539 46bd 20d6 a23d
000003e0: 9615 b2bc 587e 67bc c178 c4bc b123 1b3d
000003f0: 6c79 093e 4181 be3c f5b3 fe3c 8f60 c4bb

fc2.bias f4 [64]
-2.0402532 -0.07993005 -0.48311153 1.2223839 -1.6900982 -0.5739359 -6.680516 -1.3649901
0.22355485 -6.1134877 -0.30512485 -0.08241073 0.25604615 -0.0307379 -0.14409874 -4.6325135
-0.23222831 1.5461303 -0.7208552 -0.06418461 0.6030166 -0.13538398 0.96384364 -0.46110007
0.8851756 -0.16772641 1.4143636 -3.1305687 -0.25911963 -0.10078051 -0.2932287 -2.9756954
-0.5524226 -2.9193401 0.16513836 0.18994908 -1.2758971 1.5590172 -0.041945275 -1.564062
-2.0957701 -4.3660874 -4.4281864 0.39297384 -0.26565245 -4.1380005 -3.0859292 -0.47081462
-5.6051536 -0.012090619 -0.03460023 -0.114690036 0.8345022 -0.20032513 -0.18077716 -1.5046368
-1.7197055 -0.6704946 0.65265954 -0.44885924 -0.1463043 -1.3402681 -0.662359 1.040391
00000000: 8293 02c0 5eb2 a3bd 655a f7be 1377 9c3f
00000010: 2355 d8bf 77ed 12bf c9c6 d5c0 ffb7 aebf
00000020: 90eb 643e b1a1 c3c0 5339 9cbe f5c6 a8bd
00000030: 7b18 833e 0cce fbbc 9f8e 13be 8d3d 94c0
00000040: 42cd 6dbe 99e7 c53f f789 38bf 3973 83bd
00000050: 4c5f 1a3f 19a2 0abe 75be 763f 4f15 ecbe
00000060: de9a 623f 79c0 2bbe de09 b53f 3d5b 48c0
00000070: 54ab 84be 0366 cebd 1222 96be cb71 3ec0
00000080: 916b 0dbf 78d6 3ac0 081a 293e 0382 423e
00000090: 9950 a3bf e08d c73f cfce 2bbd 2f33 c8bf
000000a0: 1921 06c0 fdb6 8bc0 b4b3 8dc0 de33 c93e
000000b0: 9903 88be 806a 84c0 dd7f 45c0 9d0e f1be
000000c0: 6b5d b3c0 bb17 46bc f9b8 0dbd 9ce2 eabd
000000d0: f0a1 553f 0822 4dbe a61d 39be f097 c0bf
000000e0: 4f1f dcbf 89a5 2bbf b214 273f e1d0 e5be
000000f0: cbd0 15be e88d abbf 5c90 29bf 882b 853f

fc3.weight f4 [10, 64]
-0.004722463 -0.0025203275 0.02626613 0.1780776 -0.35874066 -0.45627266 -0.043641295 -0.17760257
-0.18366659 -0.33034426 0.23542023 -0.04098876 -0.2249451 0.13291751 -0.06890359 -0.2453884
-0.10738865 0.0013905267 -0.35628226 0.10970385 0.3904497 -0.021544535 0.27252916 -0.43868646
0.03770058 0.028757278 0.054372314 -0.015510015 -0.055230126 0.04754487 -0.061360378 -0.14976247
0.033383958 -0.017579839 -0.28611487 -0.32214835 0.35992774 0.096909724 -0.0008919197 0.041757237
-0.1995207 0.2325483 -0.22912015 -0.10697584 -0.11690899 0.14172298 0.14947638 -0.48423937
-0.06291988 -0.16628525 -0.58205366 0.1173493 -0.07593159 -0.82552826 -0.0022068035 0.033644076
-0.06501856 0.07030242 -0.25172955 0.0032132284 -0.16947447 -0.21848196 -0.23758714 0.29284635
-0.036225356 0.040221054 -0.07435607 -0.14841689 0.25807312 -0.69109625 -0.42783338 0.20790139
-0.15293273 0.059686173 -0.23527725 -0.123508304 -0.03073155 0.012552936 -0.0121274255 0.13420762
-0.034513302 0.116716474 -0.08216112 0.020372301 -0.6607243 -0.037408385 -0.51101977 -0.01713106
-0.24539384 -0.038315564 -0.16419932 -0.16518465 0.08824388 -1.0637128 0.02425274 -0.16457942
-0.12749669 -0.014879724 0.32956272 -0.42109752 -0.2890786 0.032822363 -0.03213926 -0.20753409
-0.2186474 -0.0053523625 0.23406318 -0.23841643 0.08047259 -0.1742301 -0.16209812 0.07499444
-0.29800457 0.12686126 -0.031674344 -0.04713672 -0.17312784 0.10197404 0.043082472 -0.032232165
-0.28874528 -0.010255894 -0.099360235 -0.08843171 -0.06209281 0.20732081 -0.2677931 -0.45853138
0.031809926 0.031237839 -0.08020655 -0.0063665435 0.0536668 -0.42808297 0.033441957 0.24618983
-0.12588301 0.20124798 0.07785104 0.018806288 -0.15301336 0.09072428 -0.07502495 0.235376
0.054480642 0.10445175 0.11525905 0.09471659 -0.17776307 -0.02974878 -0.16767618 -0.086298846
-0.5115749 0.13888729 0.07712545 0.018607823 -0.045429144 -0.20861338 0.010589159 0.2162709
-0.13399534 0.0734048 0.112349205 -0.089476965 -1.0493959 0.2161165 -0.072225444 0.07787678
-0.18487968 0.31941164 0.0076479735 -0.15682393 0.06092526 -0.031200372 -0.034604527 0.05222368
-0.26406577 -0.060870036 -0.12429569 -0.12710957 -0.05894773 0.06083624 0.06383272 0.12804307
-0.0010494315 0.031674553 -0.07906935 -0.12455668 0.028320173 0.096916996 -0.111475475 -0.05207004
-0.019509194 0.025846442 -0.49396712 -0.13985676 0.0873843 -0.4766381 -0.6060401 0.2044892
-0.16171971 0.06745243 0.02975542 -0.13791849 -0.1767048 -0.057972576 -0.15891981 0.27063975
0.14335719 -0.17591168 0.08521785 0.062227823 -0.11437174 -0.031014062 -0.35265163 -0.13336886
-0.17072302 0.10609926 -0.010989306 0.22034857 -0.13607468 -0.43451723 -0.048967022 -0.04845736
0.022634579 0.26485112 0.061632395 -0.0330434 -0.6225166 0.19934022 -0.014284716 -0.34576222
-0.19083686 0.08325697 0.027336828 0.12955841 0.14909355 -0.029325036 -0.12618327 -0.11979085
-0.095578596 -0.12825878 -0.022036435 -0.030805951 0.17187722 -0.06105779 0.06791945 -0.03569227
-0.21317047 0.2377754 0.18873055 0.056758318 -0.0018207348 -0.15376998 -0.11689637 0.0729711
00000000: e4be 9abb 142c 25bb 112c d73c f959 363e
00000010: dbac b7be 929c e9be 37c1 32bd 73dd 35be
00000020: 1813 3cbe e222 a9be 0012 713e d4e3 27bd
00000030: 0258 66be 871b 083e 531d 8dbd 1947 7bbe
00000040: 95ee dbbd 5542 b63a a16a b6be 69ac e03d
00000050: 06e9 c73e 2a7e b0bc f188 8b3e 839b e0be
00000060: ec6b 1a3d 6294 eb3c 81b5 5e3d b81d 7ebc
00000070: fc38 62bd 69be 423d 0555 7bbd 555b 19be
00000080: 9ebd 083d 9803 90bc a67d 92be a1f0 a4be
00000090: 7348 b83e 9b78 c63d b8cf 69ba a309 2b3d
000000a0: 284f 4cbe 2421 6e3e 799e 6abe 2616 dbbd
000000b0: fb6d efbd d41f 113e 5610 193e 39ee f7be
000000c0: 23dc 80bd ae46 2abe 7801 15bf d454 f03d
000000d0: 0582 9bbd d255 53bf 05a0 10bb 5fce 093d
000000e0: 7328 85bd b7fa 8f3d b2e2 80be 0795 523b
000000f0: b78a 2dbe bcb9 5fbe 0b4a 73be f5ef 953e
00000100: 0a61 14bd d5be 243d ff47 98bd 99fa 17be
00000110: 2922 843e afeb 30bf fa0c dbbe 1ae4 543e
00000120: 669a 1cbe 7d79 743d 85ec 70be ecf1 fcbd
00000130: bbc0 fbbc d4aa 4d3c 1cb2 46bc b96d 093e
00000140: d25d 0dbd 0c09 ef3d 1744 a8bd d0e3 a63c
00000150: 3a25 29bf 8939 19bd 31d2 02bf 7056 8cbc
00000160: 8648 7bbe c8f0 1cbd de23 28be 2a26 29be
00000170: 35b9 b43d be27 88bf afad c63c 8287 28be
00000180: 7e8e 02be 16ca 73bc 72bc a83e 189a d7be
00000190: 1c02 94be be70 063d 75a4 03bd d183 54be
000001a0: 1be5 5fbe df62 afbb 42ae 6f3e 7023 74be
000001b0: d0ce a43d 6069 32be 0dfd 25be af96 993d
000001c0: 0e94 98be ebe7 013e f5bc 01bd 6f12 41bd
000001d0: 6d48 31be c4d7 d03d 3f77 303d e005 04bd
000001e0: 6cd6 93be 5608 28bc 617d cbbd af1b b5bd
000001f0: 0855 7ebd e84b 543e 2d1c 89be a0c4 eabe
00000200: 204b 023d 7fe6 ff3c 5543 a4bd 709e d0bb
00000210: b8d1 5b3d b12d dbbe 6ffa 083d 3019 7c3e
00000220: 7ae7 00be f313 4e3e 5e70 9f3d a50f 9a3c
00000230: 89af 1cbe a7cd b93d aea6 99bd 6806 713e
00000240: 1827 5f3d cdea d53d f00c ec3d c6fa c13d
00000250: 8607 36be b7b3 f3bc 4eb3 2bbe 73bd b0bd
00000260: 93f6 02bf 7838 0e3e f3f3 9d3d 6f6f 983c
00000270: e913 3abd bf9e 55be 277e 2d3c 1e76 5d3e
00000280: 1336 09be 4155 963d 5717 e63d b33f b7bd
00000290: 9b52 86bf a54d 5d3e efea 93bd dc7d 9f3d
000002a0: 1951 3dbe ec89 a33e da9b fa3b 7496 20be
000002b0: c48c 793d ec97 ffbc 7abd 0dbd 7fe8 553d
000002c0: a133 87be dc52 79bd bd8e febd 0329 02be
000002d0: 2d73 71bd 6c2f 793d bbba 823d b91d 033e
000002e0: 148d 89ba 2dbd 013d 1def a1bd 9317 ffbd
000002f0: b5ff e73c 6b7c c63d 414d e4bd 6547 55bd
00000300: bfd1 9fbc ebbb d33c 42e9 fcbe 9c36 0fbe
00000310: 8af6 b23d e909 f4be 7225 1bbf 9e65 513e
00000320: da99 25be 8024 8a3d a3c1 f33c 813a 0dbe
00000330: 1af2 34be a774 6dbd e0bb 22be 4b91 8a3e
00000340: 3acc 123e 3122 34be b286 ae3d 9ae2 7e3d
00000350: bb3b eabd 3411 febc c18e b4be d991 08be
00000360: 04d2 2ebe 924a d93d 7d0c 34bc 0ea3 613e
00000370: 2957 0bbe 0b79 debe a591 48bd 3a7b 46bd
00000380: 276c b93c 919a 873e 4072 7c3d 8458 07bd
00000390: 3f5d 1fbf d81f 4c3e 710a 6abc bf07 b1be
000003a0: bd6a 43be a182 aa3d 7cf1 df3c f6aa 043e
000003b0: fbab 183e 0f3b f0bc 3036 01be e854 f5bd
000003c0: b6be c3bd 4556 03be c185 b4bc c35c fcbc
000003d0: 9500 303e bc17 7abd 5a19 8b3d 0f32 12bd
000003e0: 5c49 5abe 657b 733e 9542 413e 697b 683d
000003f0: b9a5 eeba e175 1dbe 5d67 efbd df71 953d

fc3.bias f4 [10]
-0.61802125 -0.12710355 -0.6364812 -0.22986637 0.44193733 0.070900485 -0.7177029 -0.28298354
0.3912361 0.91482514
00000000: a436 1ebf 6f27 02be 6ff0 22bf 1762 6bbe
00000010: 9c45 e23e 4634 913d 61bb 37bf 38e3 90be
00000020: 1950 c83e fb31 6a3f
