Deep learning network/saved_model/mnist_model.pth (torch, 440581 bytes, 6 tensors)

fc1.weight f4 [128, 784]
0.0060861064 -0.032880247 0.031628497 -0.036671747 0.015818214 0.012589743 0.022659518 -0.025783867
0.0053675836 0.0030765282 -0.03507493 -0.01360747 -0.004396989 0.03412525 0.0057754433 -0.011582704
-0.002082295 0.022861749 -0.0151109975 -0.031693283 0.007918318 0.011814715 -0.021941606 -0.011950372
0.014632752 0.021449678 0.02613058 0.031077327 0.0209996 -0.0021570246 -0.030212497 -0.027546134
0.026993722 0.028952532 0.030746328 0.03396182 0.010310268 -0.018437525 -0.0076000746 0.03214786
0.032273646 0.029286645 -0.033516522 -0.025139662 0.0030575728 0.0016377176 0.02444182 0.010721377
-0.01970069 -0.030680917 -0.030485094 -6.189023e-05 0.01754862 0.002112452 0.015595601 0.003791811
-0.021193463 0.021582305 0.0030123414 0.009609613 -0.015976 0.006258398 -0.020285482 0.002871954
0.01262633 -0.035488024 0.013784561 0.0184617 0.011542589 -0.027725084 -0.018473966 0.005982283
-0.014482843 0.012541175 0.034296513 0.023669966 0.012124411 0.015137092 0.023618067 0.022722287
-0.018325755 -0.0034533003 0.033358198 0.009692891 -0.019217292 0.0050571924 0.013373682 0.0030617283
-0.030388342 0.013881322 -0.012052513 0.0059730834 0.008104108 0.025234098 -0.0096304715 -0.034795914
0.016980583 -0.02998061 -0.016213797 0.022603897 0.027449556 -0.016282452 -0.012011238 0.010751103
-0.0007062123 0.0027698148 -0.008859457 -0.0023903637 -0.01013753 0.0073541165 -0.0026729982 0.02536143
-0.022805134 0.009372992 -0.03240315 -0.0030914582 -0.029936193 -0.015672052 0.001986468 0.031694125
0.018920345 -0.012493905 -0.0064653982 -0.0130201215 -0.021919928 0.00838611 -0.008740759 0.009689543
-0.031728085 -0.021964524 0.005763294 0.034540627 -0.009524736 -0.018482164 -0.017768541 -0.015874505
-0.02288306 0.02497929 0.013597779 -0.028517667 0.0060980944 -0.026503138 0.0046551526 0.017349865
-0.035152283 0.033723034 0.02345559 -0.035806037 -0.023855403 0.012150475 0.0003301532 0.018048843
0.013365166 -0.0036793947 0.01379463 -0.017160859 0.03507008 0.004305855 -0.009108349 -0.002034309
0.031037027 -0.004748384 -0.027493961 0.0042248885 0.011282676 0.027277132 0.030772988 0.014583597
0.016673509 -0.026388664 0.017038759 -0.029796563 0.02949136 0.0070501436 0.028200205 0.009130993
-0.006530917 -0.030901091 0.01129384 -0.018161966 -0.02894818 -0.008828765 -0.025209932 0.025881669
-0.026314378 -0.032220438 0.025570024 0.005300437 0.011517568 -0.034877863 0.020981846 -0.010816639
0.025296953 -0.016990598 0.03423754 0.007497309 0.021957226 -0.015807202 0.020178149 0.02490358
0.0015253063 -0.027252177 -0.0025072205 0.034335166 -0.025935067 -0.017126597 -0.007992637 0.013152837
-0.017109187 -0.0055360976 0.023809195 -0.030189142 -0.021818675 -0.015379576 0.020677606 0.02586698
0.034412045 -0.011685045 0.02922243 -0.0052193003 -0.024790574 0.017367842 0.015684374 0.0025477735
0.021724582 0.010950037 0.020266598 0.025197597 0.028616706 0.009747354 0.028952146 0.0035992784
0.03195798 -0.0028902376 -0.009981639 0.018786019 0.018235546 0.019293336 0.025321227 0.00564981
0.02253595 -0.009074431 0.035243224 -0.011654492 0.025600607 -0.0053737494 0.02175867 -0.02542227
0.014837928 0.023601044 -0.024699582 -0.016389765 -1.5201511e-05 -0.0063138874 0.029488243 -0.011650024
00000000: f66d c73b 70ad 06bd e28c 013d 1d35 16bd
00000010: 3395 813c 3645 4e3c 74a0 b93c b038 d3bc
00000020: 8ee2 af3b 949f 493b bbaa 0fbd def1 5ebc
00000030: 9e14 90bb ebc6 0b3d ee3f bd3b 62c5 3dbc
00000040: 1d77 08bb 9048 bb3c 1e94 77bc d1d0 01bd
00000050: d5bb 013c 8292 413c e2be b3bc 7ecb 43bc
00000060: 36be 6f3c 3cb7 af3c cc0f d63c e195 fe3c
00000070: 5a07 ac3c de5c 0dbb 3380 f7bc 6ea8 e1bc
00000080: f021 dd3c dc2d ed3c b9df fb3c 8d1b 0b3d
00000090: 66ec 283c 4b0a 97bc 0c0a f9bb 79ad 033d
000000a0: 5f31 043d 8cea ef3c 9f48 09bd b1f1 cdbc
000000b0: 8f61 483b afa8 d63a 363a c83c b7a8 2f3c
000000c0: 5763 a1bc 8c56 fbbc e0bb f9bc 10cb 81b8
000000d0: 20c2 8f3c 1071 0a3b b184 7f3c 0880 783b
000000e0: ea9d adbc 60cd b03c b46a 453b a371 1d3c
000000f0: 1ae0 82bc 3f13 cd3b bd2d a6bc 6537 3c3b
00000100: abde 4e3c e45b 11bd a4d8 613c fe3c 973c
00000110: 211d 3d3c b71f e3bc b756 97bc 0707 c43b
00000120: 7249 6dbc 8079 4d3c 807a 0c3d 84e7 c13c
00000130: 77a5 463c 9101 783c ad7a c13c 1724 ba3c
00000140: e51f 96bc c450 62bb 9ba2 083d eece 1e3c
00000150: 956d 9dbc ceb6 a53b 4a1d 5b3c 47a7 483b
00000160: f9f0 f8bc 7c6e 633c e777 45bc dbb9 c33b
00000170: 18c7 043c bdb7 ce3c 20c9 1dbc 2986 0ebd
00000180: dd1a 8b3c e599 f5bc ccd2 84bc cf2b b93c
00000190: e4dd e03c c762 85bc c9ca 44bc 6525 303c
000001a0: 1b21 39ba c885 353b 4227 11bc a6a7 1cbb
000001b0: e217 26bc cdfa f03b 782d 2fbb c6c2 cf3c
000001c0: d5d1 babc 2e91 193c 2ab9 04bd 109a 4abb
000001d0: bf3c f5bc ad62 80bc 672f 023b b3d1 013d
000001e0: d7fe 9a3c 3cb3 4cbc b1db d3bb 5952 55bc
000001f0: 6c91 b3bc e565 093c 6735 0fbc e4c0 1e3c
00000200: 4ff5 01bd f2ee b3bc 04da bc3b 797a 0d3d
00000210: a30d 1cbc e867 97bc 558f 91bc 400b 82bc
00000220: 4175 bbbc 5ea1 cc3c 38c9 5e3c e29d e9bc
00000230: 86d2 c73b 1c1d d9bc 408a 983b 4e21 8e3c
00000240: d7fb 0fbd 2a21 0a3d f025 c03c 5aa9 12bd
00000250: 686c c3bc c912 473c 6a18 ad39 2bdb 933c
00000260: 92f9 5a3c 0022 71bb df02 623c ee94 8cbc
00000270: a5a5 0f3d 2118 8d3b 2f3b 15bc 0b52 05bb
00000280: 5d41 fe3c 5598 9bbb 043b e1bc ef70 8a3b
00000290: f9da 383c 4b74 df3c a217 fc3c 0af0 6e3c
000002a0: e296 883c 0a2d d8bc de94 8b3c ec17 f4bc
000002b0: dd97 f13c e404 e73b 1e04 e73c 299a 153c
000002c0: 4d01 d6bb 4924 fdbc cc09 393c 67c8 94bc
000002d0: bc24 edbc 86a6 10bc 0f85 cebc cb05 d43c
000002e0: 4091 d7bc 94f9 03bd 3a78 d13c 4aaf ad3b
000002f0: 2eb4 3c3c 17dc 0ebd 1fe2 ab3c 4638 31bc
00000300: 8e3b cf3c de2f 8bbc aa3c 0c3d fcab f53b
00000310: a4df b33c 1b7e 81bc a54c a53c 9802 cc3c
00000320: c9ec c73a f53f dfbc 2e50 24bb 08a3 0c3d
00000330: c775 d4bc 144d 8cbc 8df3 02bc ff7e 573c
00000340: 9128 8cbc 2768 b5bb 800b c33c 384f f7bc
00000350: 14bd b2bc 9efa 7bbc 1564 a93c fde6 d33c
00000360: a5f3 0c3d a272 3fbc e163 ef3c aa06 abbb
00000370: 9a15 cbbc 0147 8e3c 847c 803c 8cf8 263b
00000380: c0f7 b13c c967 333c 2306 a63c 316b ce3c
00000390: 956d ea3c 5eb3 1f3c 0d2d ed3c dfe1 6b3b
000003a0: 5fe6 023d 246a 3dbb 078a 23bc 23e5 993c
000003b0: b662 953c 0f0d 9e3c 766e cf3c 0b22 b93b
000003c0: 509d b83c ecac 14bc 335b 103d 7bf2 3ebc
000003d0: 5db8 d13c 4716 b0bb 3d3f b23c 5d42 d0bc
000003e0: c81a 733c fa56 c13c c756 cabc d443 86bc
000003f0: fe09 7fb7 bae4 cebb 5491 f13c bedf 3ebc

fc1.bias f4 [128]
-0.03384167 -0.0143263955 0.027463323 -0.0038700888 -0.0074484698 -0.02363343 0.018285295 -0.017501296
-0.023148838 -0.024206908 0.005255928 0.025927346 0.030869024 0.0020916648 0.004592755 0.024099711
0.016825326 0.009759582 0.0070145978 -0.009359772 0.00095755514 -0.026988994 -0.02814307 0.018054767
-0.020049252 -0.0015137072 -0.023456043 0.03671062 0.027779792 0.01739018 0.020138612 -0.009048069
-0.03447179 -0.029736476 0.015218862 -0.0019878603 -0.01442029 -0.0103327865 -0.014968691 0.0043541198
0.0047810078 0.019387675 0.03020826 0.008387172 -0.0059015416 -0.025516832 0.0249524 -0.0148884505
-0.024704168 -0.01731495 0.015005612 -0.020528078 -0.0028246227 0.030701246 0.027229162 0.008403273
-0.0003385334 -0.022998089 0.02569253 0.03319714 0.0003602705 -0.016109228 0.018610531 -0.009039173
0.001969606 0.0097349435 0.005557191 -0.020713223 0.004906276 -0.0007403209 0.0021360668 -0.036870643
-0.02641045 0.006943363 0.028935242 -0.026477605 -0.00585145 -0.008910615 0.012644544 -0.015931068
0.006394925 0.012700038 -0.01187119 0.027378835 0.0308136 0.0018921461 -0.0030351395 0.039116476
-0.028373443 0.03438802 0.026429098 -0.0058317403 0.024649583 0.0091191465 -0.007471232 0.023330905
-0.028709717 3.261814e-05 0.008017751 -0.014760634 0.02070565 -0.03423276 0.011680043 0.0027155322
0.0073697027 -0.006165529 -0.0002969998 -0.007247087 0.01427841 -0.033649374 -0.015955279 0.028350588
0.031135462 0.014895803 -0.0028692833 0.036975697 -0.027515104 -0.03300643 -0.0012535881 0.0026790882
0.028536208 -0.025930185 -0.006112769 -0.0259114 0.008758842 0.011393815 0.010353943 0.010168507
00000000: 909d 0abd 42b9 6abc c3fa e03c 51a1 7dbb
00000010: 4b12 f4bb e59a c1bc 0bcb 953c e15e 8fbc
00000020: a2a2 bdbc 914d c6bc eb39 ac3b 9665 d43c
00000030: 09e1 fc3c 5014 093b d27e 963b c26c c53c
00000040: 44d5 893c a7e6 1f3c b6da e53b bb59 19bc
00000050: 7004 7b3a 0618 ddbc 4c8c e6bc 97e7 933c
00000060: 543e a4bc 9667 c6ba e326 c0bc e05d 163d
00000070: 7292 e33c da75 8e3c bbf9 a43c 5a3e 14bc
00000080: 4b32 0dbd e999 f3bc 8958 793c c346 02bb
00000090: 1443 6cbc d94a 29bc 3e3f 75bc 01ad 8e3b
000000a0: 00aa 9c3b e7d2 9e3c 5077 f73c 596a 093c
000000b0: b861 c1bb ad08 d1bc fa68 cc3c b0ee 73bc
000000c0: 6560 cabc 15d8 8dbc 19da 753c 802a a8bc
000000d0: 4e1d 39bb 2e81 fb3c b10f df3c e2ad 093c
000000e0: 2f7d b1b9 7d66 bcbc 2479 d23c b9f9 073d
000000f0: b0e2 bc39 80f7 83bc 1d75 983c 0a19 14bc
00000100: 8114 013b 507f 1f3c 1919 b63b c7ae a9bc
00000110: d3c4 a03b 1812 42ba 41fd 0b3b ac05 17bd
00000120: ba5a d8bc 2785 e33b 9a09 ed3c 90e7 d8bc
00000130: 85bd bfbb d4fd 11bc 102b 4f3c df81 82bc
00000140: 858c d13b d213 503c 617f 42bc 9449 e03c
00000150: ce6c fc3c e301 f83a 31e9 46bb 9938 203d
00000160: 6c6f e8bc 74da 0c3d d681 d83c 2f18 bfbb
00000170: eced c93c 7968 153c 3dd1 f4bb 7420 bf3c
00000180: a430 ebbc 76cf 0838 e35c 033c 96d6 71bc
00000190: e59e a93c a737 0cbd a75d 3f3c 12f7 313b
000001a0: 8c7d f13b 3508 cabb a3b6 9bb9 f978 edbb
000001b0: feef 693c edd3 09bd a5b4 82bc 7e3f e83c
000001c0: cc0f ff3c 870d 743c 960a 3cbb d473 173d
000001d0: 5b67 e1bc c031 07bd 704f a4ba a493 2f3b
000001e0: c4c4 e93c 8a6b d4bc 9f4d c8bb 2544 d4bc
000001f0: 3f81 0f3c 20ad 3a3c 96a3 293c cf99 263c

fc2.weight f4 [64, 128]
0.053776663 -0.02835453 0.008223657 0.06516869 -0.07247958 0.015936388 0.039582834 0.09430709
0.020928819 -0.099531 -0.067795314 -0.030890184 0.08594949 0.018011443 -0.0152908545 -0.019348094
-0.075050734 0.06111393 -0.04998755 -0.041448634 -0.009061182 0.04390195 -0.023048053 -0.020779686
-0.052547753 0.058317788 -0.04417951 0.1364132 -0.034207102 -0.011671334 -0.058226645 -0.0028430691
0.037415657 -0.007185024 -0.08799224 -0.05275604 -0.11871685 -0.013147979 0.0771553 -0.04535935
-0.08950473 0.08021166 0.011517783 -0.050323162 -0.02078514 -0.0011019962 -0.047861245 0.00930115
0.07580839 0.044472486 0.123731405 0.02227833 0.025941096 -0.025214108 0.08854237 0.08112417
0.09514293 0.018677738 -0.03380657 -0.0673451 -0.07227849 0.0999808 -0.09370208 -0.090987444
0.056692604 -0.074344516 -0.08428528 0.008199111 0.08607438 0.072606094 -0.08169071 -0.00037696792
0.03434074 0.08442719 0.058642134 0.0047244406 0.043839335 0.09626889 -0.114564404 -0.03272283
0.05776957 0.011086144 -0.05185149 -0.09643743 0.0447842 0.04678676 -0.042118445 0.031537004
0.00060647016 0.046729762 -0.015492586 -0.0779958 0.10458587 -0.0843857 -0.07181396 -0.025438437
-0.019289728 -0.0072694365 -0.09176473 -0.005672254 0.07114983 0.03110253 -0.102468364 0.0048765508
0.0759223 0.005081874 0.044655032 -0.09519694 0.09869464 0.12658143 -0.06524588 0.043594427
-0.064747974 0.017542338 -0.06516116 0.058007997 0.02067864 -0.009288645 -0.118704095 0.07191665
-0.07625479 0.0041574645 -0.09415532 -0.13094865 0.11671168 -0.017530056 0.13184987 0.04395947
0.08090407 -0.0925979 -0.016647302 -0.06158317 0.095460825 -0.042918596 0.027591795 -0.03581231
0.06558051 -0.026276477 0.055583924 -0.05808808 -0.098161034 -0.021103695 0.070863366 -0.042005077
-0.050132524 -0.03442819 -0.10523648 -0.08019295 0.022449609 0.08063836 -0.0852392 0.026225228
-0.010753918 0.023992935 -0.02125942 -0.0043159225 0.012539329 -0.029515676 0.019698488 0.050650597
0.046361916 -0.05906877 0.11954148 0.06494084 -0.09026998 0.11191882 0.07713645 0.07713062
0.09739865 0.08843472 -0.055301562 0.1240285 0.03675885 -0.09227356 0.05021855 0.07518968
-0.020607462 0.013446323 -0.0055415556 -0.02526259 0.06514453 0.06711082 0.07898375 0.02966507
0.11700133 -0.035833318 0.043462515 0.08726231 0.06935388 0.14930642 -0.08435382 0.1313171
-0.07594358 0.06643922 -0.04312843 -0.00010458465 -0.05624136 -0.030659908 -0.08050056 0.02583289
0.10138731 -0.016705373 -0.05461891 0.09212316 -0.08240191 -0.011152332 0.009026292 0.05251888
0.04937362 0.108053364 0.056643844 0.06878647 -0.07463587 -0.017332604 -0.068150766 -0.03879034
0.09551894 0.01923271 0.049139332 -0.07111828 -0.0351132 0.06235728 0.056061797 -0.030580588
0.05838014 0.07560997 0.01463948 -0.04577634 0.04967116 -0.021635083 -0.062360764 -0.050501987
0.06826418 0.0014594169 0.052621722 0.010370377 0.0011300493 0.13853551 -0.05560132 0.06093721
-0.009038616 0.03532378 -0.04802753 0.084123924 -0.050124586 0.06793345 -0.12228841 -0.06833251
-0.018952627 -0.022013614 0.07592944 -0.02768662 -0.04671991 0.04249448 -0.001051772 0.0075709545
00000000: eb44 5c3d c247 e8bc 84bc 063c 2a77 853d
00000010: 2d70 94bd 078d 823c 9c21 223d 1324 c13d
00000020: ea72 ab3c e9d6 cbbd 45d8 8abd 690d fdbc
00000030: 4906 b03d bc8c 933c 7e86 7abc e57f 9ebc
00000040: 33b4 99bd 9a52 7a3d bfbf 4cbd 0bc6 29bd
00000050: 5a75 14bc 88d2 333d 45cf bcbc 293a aabc
00000060: 503c 57bd a2de 6e3d 93f5 34bd e7af 0b3e
00000070: bf1c 0cbd 1f39 3fbc 107f 6ebd c952 3abb
00000080: 2941 193d 5a70 ebbb 4735 b4bd b816 58bd
00000090: d221 f3bd 9f6a 57bc 9903 9e3d baca 39bd
000000a0: 424e b7bd 0346 a43d 15b5 3c3c a91f 4ebd
000000b0: 9945 aabc db70 90ba 270a 44bd da63 183c
000000c0: 6e41 9b3d c828 363d e466 fd3d 0b81 b63c
000000d0: 6c82 d43c d18d cebc b455 b53d 6e24 a63d
000000e0: 4cda c23d 0e02 993c c278 0abd 3aec 89bd
000000f0: bf06 94bd bcc2 cc3d e0e6 bfbd a057 babd
00000100: 8136 683d f041 98bd c39d acbd 9055 063c
00000110: c447 b03d 81b2 943d 754d a7bd c7a3 c5b9
00000120: e0a8 0c3d 2ae8 ac3d bc32 703d 7bcf 9a3b
00000130: e090 333d a028 c53d bea0 eabd 6008 06bd
00000140: c99f 6c3d a8a2 353c 3a62 54bd fd80 c5bd
00000150: a36f 373d 79a3 3f3d 6484 2cbd f22c 013d
00000160: 86fb 1e3a b567 3f3d 9ed4 7dbc 43bc 9fbd
00000170: 1e31 d63d 69d2 acbd 3313 93bd 4564 d0bc
00000180: 7e05 9ebc 7434 eebb 26ef bbbd 51de b9bb
00000190: 01b7 913d bcca fe3c efda d1bd 79cb 9f3b
000001a0: 277d 9b3d d985 a63b 32e8 363d 9df6 c2bd
000001b0: 6a20 ca3d 909e 013e a29f 85bd 1290 323d
000001c0: 969a 84bd f3b4 8f3c 3773 85bd cb99 6d3d
000001d0: 4066 a93c 672f 18bc 221b f3bd 0949 933d
000001e0: 792b 9cbd 573b 883b 81d4 c0bd 6717 06be
000001f0: 8906 ef3d 319b 8fbc a703 073e d80e 343d
00000200: 08b1 a53d f8a3 bdbd ec5f 88bc a23e 7cbd
00000210: f780 c33d 69cb 2fbd 3008 e23c eeaf 12bd
00000220: 134f 863d c441 d7bc f8ab 633d c4ed 6dbd
00000230: a708 c9bd a8e1 acbc d020 913d 840d 2cbd
00000240: c357 4dbd 9304 0dbd 3986 d7bd 343c a4bd
00000250: 3ee8 b73c b925 a53d e491 aebd 4ad6 d63c
00000260: 3431 30bc d58c c43c 3c28 aebc 956c 8dbb
00000270: c271 4d3c dcca f1bc b95e a13c 0077 4f3d
00000280: fee5 3d3d 18f2 71bd 2ad2 f43d b4ff 843d
00000290: 78df b8bd b235 e53d b7f9 9d3d a9f6 9d3d
000002a0: f278 c73d 431d b53d e483 62bd a702 fe3d
000002b0: 7390 163d ecf9 bcbd f7b1 4d3d 0cfd 993d
000002c0: fbd0 a8bc f74d 5c3c f095 b5bb 7ef3 cebc
000002d0: 7f6a 853d 6671 893d 3bc2 a13d 2904 f33c
000002e0: 659e ef3d f5c5 12bd c005 323d 95b6 b23d
000002f0: 6809 8e3d c8e3 183e b2c1 acbd fd77 063e
00000300: 4f88 9bbd 4911 883d 70a7 30bd 7554 dbb8
00000310: 575d 66bd 7d2a fbbc 7add a4bd 7f9f d33c
00000320: 26a4 cf3d b5d9 88bc 14b8 5fbd 11ab bc3d
00000330: 55c2 a8bd 45b8 36bc 03e3 133c 0a1e 573d
00000340: fe3b 4a3d 154b dd3d 6003 683d ecdf 8c3d
00000350: b1da 98bd 1bfd 8dbc a192 8bbd 9fe2 1ebd
00000360: 6f9f c33d eb8d 9d3c 5346 493d 76a6 91bd
00000370: dcd2 0fbd 596a 7f3d 0ea1 653d 2484 fabc
00000380: 0420 6f3d 66d9 9a3d 6eda 6f3c f97f 3bbd
00000390: fc73 4b3d 0f3c b1bc 006e 7fbd 2cdb 4ebd
000003a0: 17ce 8b3d e849 bf3a e089 573d 84e8 293c
000003b0: 2a1e 943a 41dc 0d3e 36be 63bd 4c99 793d
000003c0: b416 14bc abaf 103d 84b8 44bd 2a49 ac3d
000003d0: 704f 4dbd b120 8b3d 5972 fabd eaf1 8bbd
000003e0: 8a42 9bbc e555 b4bc e580 9b3d 0dcf e2bc
000003f0: 605d 3fbd b10e 2e3d 9ddb 89ba c515 f83b

fc2.bias f4 [64]
0.06596136 -0.03736588 0.072694264 -0.003172855 0.0922092 -0.019092938 0.030610742 0.033599872
-0.0056989044 -0.064814866 0.07803437 0.06677769 -0.037874974 0.015347729 0.035860833 0.019937288
0.09150379 -0.038371246 -0.028254993 -0.0033142662 0.04771279 -0.02499477 0.02628287 -0.06390024
0.04471216 0.033515338 -0.036469113 0.028474726 0.08306505 0.00034907434 -0.061462812 -0.044424843
0.051147655 0.072877534 -0.028153418 0.08314902 0.08366724 -0.035452865 0.0018804667 0.016085839
-0.0374197 -0.06271273 0.085288204 -0.044239044 -0.06536087 -0.09308123 0.014303245 0.05081064
0.062064875 0.078874394 0.033988107 -0.050333913 -0.06661105 0.023888128 0.05804593 -0.026392605
0.07356209 -0.056736324 0.031187467 -0.07218169 0.028084034 -0.07984926 0.011806009 -0.04920609
00000000: c016 873d f70c 19bd bbe0 943d acef 4fbb
00000010: 2dd8 bc3d cb68 9cbc 61c3 fa3c 05a0 093d
00000020: e0bd babb a8bd 84bd 7cd0 9f3d bec2 883d
00000030: ca22 1bbd 0b75 7b3c cfe2 123d 8653 a33c
00000040: 5766 bb3d 2b2b 1dbd 0477 e7bc 2934 59bb
00000050: 7d6e 433d d5c1 ccbc 2c4f d73c 21de 82bd
00000060: 1924 373d 6147 093d a360 15bd d443 e93c
00000070: 021e aa3d f703 b739 6ec0 7bbd d3f6 35bd
00000080: 3480 513d d140 953d ffa1 e6bc 094a aa3d
00000090: bb59 ab3d 0637 11bd fe79 f63a 73c6 833c
000000a0: 6645 19bd 886f 80bd 95ab ae3d 0034 35bd
000000b0: ebdb 85bd 5fa1 bebd 2858 6a3c d11e 503d
000000c0: bd37 7e3d e688 a13d 1d37 0b3d ef2a 4ebd
000000d0: 606b 88bd 09b1 c33c 92c1 6d3d 4e35 d8bc
000000e0: b9a7 963d 5964 68bd dc7c ff3c fed3 93bd
000000f0: 7d10 e63c 0288 a3bd fe6d 413c 538c 49bd

fc3.weight f4 [10, 64]
-0.16010456 -0.23311464 0.118396856 -0.20707098 0.21322317 -0.20896061 -0.08210579 -0.051431656
-0.118173845 0.111581855 -0.032520425 0.032109033 0.1897353 0.005483752 0.17238517 -0.061606847
-0.06451 -0.0020681142 -0.10363459 -0.26463944 0.2816196 -0.17595369 0.11965724 -0.14625289
0.07902953 0.33871615 -0.09319687 0.115780324 -0.10917218 -0.1191662 0.20851058 0.09256448
0.058017027 -0.22437654 0.23750734 -0.15736406 -0.23968294 -0.031012103 0.26467732 -0.23221876
-0.11897401 -0.080253355 -0.12547381 0.041272387 0.11410531 -0.086597905 0.14189683 0.24136308
0.21421106 0.033801023 0.0059365355 -0.24360615 -0.0034573297 -0.17443174 -0.16079532 0.07017552
-0.091392726 0.08743072 0.0448057 -0.2810593 -0.10047034 0.024858171 -0.20319012 -0.09762725
-0.010042377 0.23964454 -0.06513277 -0.118578516 -0.1610638 0.0032143432 0.21739021 0.080067664
-0.18312405 0.09019148 0.26948115 0.10359657 -0.26910257 -0.14410357 -0.034289125 0.09642929
-0.19577749 0.14531377 0.10538188 -0.089470245 0.061271433 0.006339669 0.049728047 -0.090480834
0.23844637 -0.181616 -0.08827608 0.004713663 -0.19744149 0.048542652 -0.15241536 -0.054482177
0.01807428 -0.08111545 -0.13572505 -0.107800044 0.32206574 0.07684941 -0.28031778 -0.024348574
-0.12480287 0.036357976 -0.038685247 0.2371009 0.038593568 -0.012178788 0.24819085 -0.25096384
-0.20229569 0.0050501046 -0.013415054 0.21555486 -0.07110291 0.00228011 -0.13880214 -0.13018781
0.0692972 -0.07234433 -0.06698503 0.27848586 -0.2140353 0.06102821 0.17508022 0.18109049
-0.11755024 0.087185025 0.08113391 -0.17767853 0.124392785 0.08182174 0.10606323 0.14503159
0.16449519 0.011665075 0.22468767 0.14941683 -0.030287107 -0.00350755 -0.08699103 0.05888033
-0.019366486 -0.06650294 -0.16938634 -0.02125367 0.0019208584 0.11139071 -0.034460545 0.15939027
0.033178687 -0.18638867 0.15365693 -0.10996508 -0.18570967 0.1606407 -0.014457831 -0.17391829
-0.11912658 0.1345317 -0.059275057 -0.14960629 -0.14426263 -0.06539591 0.2435345 -0.27903494
0.009375044 -0.11882594 0.06213869 -0.17238171 -0.17244647 -0.1298812 0.14719495 0.17490813
0.17252263 -0.06642713 0.09496237 0.25089362 -0.006594421 -0.006206306 0.024779508 -0.013891996
0.13773127 -0.05707991 -0.18338458 -0.20992538 -0.07397574 0.011769832 0.14671262 -0.14232208
0.28697428 0.2186407 -0.17272139 0.22285715 0.07187307 -0.16328193 -0.12328623 0.21146065
0.16910923 -0.048639167 0.11865994 -0.046876628 0.096186735 -0.15696579 -0.028527588 -0.031078888
-0.090940244 -0.06717214 0.090664215 -0.024871742 0.06174873 -0.2052899 -0.11485363 -0.12540363
0.1467802 -0.08563595 0.12624855 -0.033843443 0.048560694 -0.189782 -0.13979208 0.21947409
0.04960644 0.27523205 -0.11709714 -0.06746299 -0.123905726 -0.06892007 0.21205899 -0.035214737
0.010053199 -0.028476128 -0.076171055 0.0117894765 -0.008466257 -0.067151465 -0.13502876 -0.18711434
0.17277983 -0.022456951 -0.045543987 -0.109749205 -0.13438913 -0.0966414 -0.054494843 -0.020107545
0.02947478 0.044677068 -0.06139291 -0.042449262 -0.1580756 0.061681572 -0.13212365 0.2846374
00000000: 73f2 23be 9bb5 6ebe 0d7a f23d 6a0a 54be
00000010: 2d57 5a3e c5f9 55be 1527 a8bd 00aa 52bd
00000020: 2105 f2bd 0785 e43d 2334 05bd c384 033d
00000030: f849 423e 0cb1 b33b bd85 303e 7657 7cbd
00000040: d21d 84bd 3389 07bb 5f3e d4bd d27e 87be
00000050: 7230 903e 342d 34be db0e f53d 51c3 15be
00000060: 3cda a13d 346c ad3e 00de bebd 3c1e ed3d
00000070: aa95 dfbd 690d f4bd cc83 553e 7292 bd3d
00000080: 43a3 6d3d f7c2 65be 2035 733e 0b24 21be
00000090: 726f 75be 180d febc c983 873e c1ca 6dbe
000000a0: a5a8 f3bd df5b a4bd 357c 00be 3c0d 293d
000000b0: 0bb0 e93d 3e5a b1bd 674d 113e e227 773e
000000c0: 255a 5b3e f172 0a3d 4587 c23b e473 79be
000000d0: 5e94 62bb 3c9e 32be 87a7 24be 2fb8 8f3d
000000e0: 1c2c bbbd e10e b33d 2f86 373d 01e7 8fbe
000000f0: 65c3 cdbd 5da3 cb3c 1211 50be ccf0 c7bd
00000100: c888 24bc 6165 753e 5464 85bd 4bd9 f2bd
00000110: e9ed 24be bba7 523b 8a9b 5e3e 84fa a33d
00000120: df84 3bbe 50b6 b83d 6ff9 893e 702a d43d
00000130: d0c7 89be e38f 13be c172 0cbd b87c c53d
00000140: e579 48be 22cd 143e 75d2 d73d 2d3c b7bd
00000150: c1f7 7a3d 00bd cf3b a3af 4b3d 044e b9bd
00000160: 492b 743e 8bf9 39be 17ca b4bd 1275 9a3b
00000170: 1a2e 4abe a9d4 463d c612 1cbe b428 5fbd
00000180: 8310 943c db1f a6bd 82fb 0abe 45c6 dcbd
00000190: cde5 a43e 3963 9d3d d085 8fbe a976 c7bc
000001a0: a698 ffbd 1aec 143d 6c74 1ebd 94ca 723e
000001b0: 4a14 1e3d 8a89 47bc be25 7e3e 557e 80be
000001c0: 9a26 4fbe 597b a53b d1ca 5bbc 6aba 5c3e
000001d0: 679e 91bd e66d 153b 2622 0ebe f44f 05be
000001e0: b1eb 8d3d 4429 94bd 732f 89bd b395 8e3e
000001f0: 122c 5bbe b7f8 793d 3b48 333e c96f 393e
00000200: 2ebe f0bd 108e b23d 8929 a63d 5cf1 35be
00000210: a5c1 fe3d 2892 a73d ae37 d93d 2983 143e
00000220: 6d71 283e df1e 3f3c 8614 663e ba00 193e
00000230: ab1c f8bc edde 65bb 5a28 b2bd 802c 713d
00000240: 77a6 9ebc b232 88bd 9d73 2dbe 2d1c aebc
00000250: 50c5 fb3a d020 e43d 8026 0dbd 3437 233e
00000260: 60e6 073d acdc 3ebe 3e58 1d3e 5f35 e1bd
00000270: ad2a 3ebe ff7e 243e 8ae0 6cbc a317 32be
00000280: a3f8 f3bd aec2 093e 67ca 72bd 6432 19be
00000290: 95b9 13be 4aee 85bd 1c61 793e abdd 8ebe
000002a0: c999 193c 045b f3bd 2485 7e3d d584 30be
000002b0: cf95 30be 94ff 04be 46ba 163e 1e1b 333e
000002c0: c6a9 303e f20a 88bd a27b c23d 2175 803e
000002d0: 0316 d8bb 455e cbbb 65fe ca3c 419b 63bc
000002e0: 6d09 0d3e a0cc 69bd 2bc9 3bbe aef6 56be
000002f0: 9880 97bd 41d6 403c d53b 163e e1bc 11be
00000300: 4bee 923e 59e3 5f3e e0dd 30be aa34 643e
00000310: 3032 933d 6133 27be 7e7d fcbd 2489 583e
00000320: f82a 2d3e dd39 47bd fc03 f33d b501 40bd
00000330: 8dfd c43d a4bb 20be b0b2 e9bc 2799 febc
00000340: e13e babd 8c91 89bd 29ae b93d d3bf cbbc
00000350: 3cec 7c3d 8437 52be 6138 ebbd cf69 00be
00000360: 8c4d 163e e761 afbd 4d47 013e 6c9f 0abd
00000370: 94e7 463d 3656 42be a825 0fbe d1bd 603e
00000380: 1f30 4b3d 37eb 8c3e a0d0 efbd 092a 8abd
00000390: 49c2 fdbd f725 8dbd fe25 593e 543d 10bd
000003a0: 2cb6 243c c546 e9bc 92ff 9bbd a628 413c
000003b0: 0eb6 0abc b586 89bd fb44 0abe e79a 3fbe
000003c0: 32ed 303e a4f7 b7bc 558c 3abd 31c4 e0bd
000003d0: 4e9d 09be edeb c5bd fc35 5fbd 94b8 a4bc
000003e0: 1875 f13c 4dff 363d 2277 7bbd 47df 2dbd
000003f0: 92de 21be d1a5 7c3d 6c4b 07be febb 913e

fc3.bias f4 [10]
0.012965012 0.12282519 -0.03497432 -0.043157578 -0.061654408 -0.08504859 -0.011252322 0.10561174
0.013769021 0.099300064
00000000: 346b 543c c68b fb3d 3c41 0fbd 00c6 30bd
00000010: 5589 7cbd f52d aebd a95b 38bc f84a d83d
00000020: 7697 613c d55d cb3d
